okay_nih_baz_tag.tflite (tflite, 206964 bytes, 9 tensors)

arith.constant f4 [1, 32]
0	0x3e630585	0.22170074
1	0x3d305c4b	0.043056767
2	0xbdda6a4c	-0.10664806
3	0x3e06d1ea	0.13166013
4	0x3ddebfd0	0.10876429
5	0x3d304203	0.043031704
6	0xbe39c216	-0.18140444
7	0xbbee23c1	-0.007267446
8	0x3e0aefec	0.13568085
9	0x3e55931a	0.20856896
10	0xbeaad44a	-0.3336509
11	0x3e4d521e	0.20050856
12	0xbeaf2f23	-0.3421565
13	0x3cc96129	0.024582462
14	0x3deaee17	0.11471193
15	0x3e75ad17	0.2399181
16	0x3da7da93	0.081959866
17	0xbeafeba1	-0.34359458
18	0xbec16348	-0.37771058
19	0xbc1506b4	-0.009095836
20	0x3e7cf992	0.24704579
21	0x3e3a1cf6	0.1817511
22	0x3c990cfe	0.018682953
23	0xbeb924cb	-0.36160883
24	0xbeb257f8	-0.3483274
25	0xbeabe6fa	-0.3357466
26	0xbebd47b4	-0.36968768
27	0xbdd7534c	-0.105139345
28	0x3dc3b4c4	0.09555963
29	0xbd4ce654	-0.050024346
30	0x3dda477f	0.10658168
31	0x3e192866	0.14956817

arith.constant1 f4 [32, 32]
0	0x3cd3b2e1	0.025842132
1	0xbde01320	-0.10941148
2	0xbc524979	-0.0128349
3	0xbceb5500	-0.028727055
4	0x3e34203c	0.17590421
5	0xbd908030	-0.070557
6	0xbe077c38	-0.1323098
7	0xbe24280f	-0.16030906
8	0xbe33ee8c	-0.17571467
9	0xbe06ec7d	-0.1317615
10	0x3dafba2a	0.0858043
11	0x3c46595d	0.012106267
12	0x3d39e247	0.04538181
13	0xbdb5f698	-0.08884925
14	0x3df373cb	0.1188732
15	0xbd34bc75	-0.04412504
16	0xbd59abd7	-0.053142395
17	0x3ce21f6a	0.02760287
18	0xbe202913	-0.15640669
19	0xbe269573	-0.16267948
20	0x3e182c07	0.14860545
21	0xbd74b98f	-0.059747275
22	0xb9f40315	-0.00046541603
23	0x3cd2f6cf	0.025752453
24	0x3dbaaf8e	0.09115516
25	0xbd5bea9d	-0.05369054
26	0x3daa4d37	0.08315509
27	0x3ddb601a	0.10711689
28	0x3a725151	0.00092436845
29	0x3e2cb222	0.16864827
30	0xbdfbe114	-0.122987896
31	0x3d6a8f50	0.05726558
32	0xbb82e6c5	-0.003994795
33	0x3c41d14a	0.011829684
34	0xbc8f9ba4	-0.01753027
35	0xbe1d2ffc	-0.15350336
36	0xbe2269b1	-0.1586063
37	0x3d5f9d17	0.054593172
38	0xbe119b76	-0.1421946
39	0x3c70b050	0.014690474
40	0xbdf5e7e5	-0.12007121
41	0xbe22b65f	-0.15889882
42	0x3da168f2	0.07881345
43	0xbc3b1b2b	-0.011420052
44	0x3c9b39f7	0.018948538
45	0x3e369a0f	0.17832206
46	0xbdcd4e94	-0.10024753
47	0x3e0b57c4	0.13607699
48	0xbd4b6289	-0.049654517
49	0xbdc0c580	-0.0941267
50	0x3d90dc24	0.070732385
51	0xbdad94f0	-0.08475673
52	0xbc773cdd	-0.0150901945
53	0x3d249f49	0.04019097
54	0x3c83a191	0.016068252
55	0x3d1202f1	0.035647336
56	0xbd19d480	-0.03755617
57	0x3dc3a8e9	0.095537014
58	0xbcce9fab	-0.02522262
59	0xbe07942c	-0.13240117
60	0x3db354ca	0.087564066
61	0x3cfefd80	0.031126738
62	0x3e26a104	0.1627236
63	0xbd398763	-0.04529513
64	0x3d00fbc4	0.031490102
65	0x3d645596	0.055745684
66	0x3d595db1	0.053067867
67	0xbd796f8b	-0.06089739
68	0xbcadee9c	-0.021231942
69	0xbe00adf4	-0.12566358
70	0x3e335bf1	0.17515542
71	0x3b36952e	0.0027859914
72	0x3ddaa228	0.1067546
73	0xbe298a58	-0.1655668
74	0x3dc12843	0.094315074
75	0xbe367f63	-0.17822032
76	0xbd1ef29d	-0.038805593
77	0xbe26474f	-0.1623814
78	0x3deab1ac	0.114596695
79	0x3e04892b	0.1294295
80	0x3de43e40	0.11144686
81	0x3e08ef86	0.13372621
82	0xbbf1f0b8	-0.0073834322
83	0x3e00703b	0.12542813
84	0xbda5b254	-0.08090654
85	0xbe353854	-0.17697269
86	0xbda7e6cb	-0.08198317
87	0xbe17512d	-0.1477706
88	0x3ac008e5	0.0014651088
89	0x3dc7d8f1	0.09758175
90	0x3df6cd75	0.120509066
91	0xbd6d8240	-0.057985544
92	0xbce02c11	-0.027364762
93	0x3e0e1533	0.13875274
94	0x3d90f909	0.0707875
95	0x3e204c8b	0.15654199
96	0x3b06ee86	0.0020588948
97	0xbdd727c9	-0.10505635
98	0x3ccfafe2	0.025352422
99	0xbd3b60e0	-0.045746684
100	0x3e2740e8	0.16333354
101	0x3c693e7a	0.014236087
102	0xbdef83be	-0.1169505
103	0x3de5270e	0.1118909
104	0x3df9c5f1	0.121959575
105	0xbe1048b4	-0.14090234
106	0xbe003840	-0.12521458
107	0xbe248978	-0.16068065
108	0xbd475d3d	-0.048672903
109	0xbd23e146	-0.04000976
110	0x3d0acd54	0.033887222
111	0xbcfaf25e	-0.030633148
112	0x3d3224cd	0.043492127
113	0x3d379f8a	0.044829883
114	0xbdaa94df	-0.08329176
115	0x3de588f8	0.11207765
116	0xbe00d0a3	-0.12579589
117	0x3e07fe31	0.1328056
118	0x3caaf13f	0.020866988
119	0x3dcae0d2	0.09906162
120	0x3cc3ecb0	0.023916572
121	0xbe13f85d	-0.14450212
122	0x3d90915c	0.07058975
123	0x3e1b950f	0.1519358
124	0x3d77208b	0.06033377
125	0xbddff5c7	-0.1093555
126	0x3df63b9f	0.120230906
127	0x3d9f00cb	0.07763823
128	0xbb83f7bc	-0.004027335
129	0xbdb6d922	-0.089281335
130	0x3e03deaf	0.12877916
131	0xbe48090e	-0.19534704
132	0xbe0e451f	-0.13893555
133	0xb9cad5e6	-0.0003868781
134	0x3e2fd2ab	0.17170207
135	0x3d836602	0.06415941
136	0xbdf26581	-0.118357666
137	0x3de0a3b1	0.10968722
138	0xbe06723c	-0.13129514
139	0x3de5c27f	0.11218738
140	0xbe116ebe	-0.14202401
141	0xbdcb67f8	-0.0993194
142	0x3e120874	0.14261037
143	0xbdd87af9	-0.1057033
144	0xbd68d073	-0.056839418
145	0x3df01e06	0.117244765
146	0x3e06a2ff	0.13148116
147	0xbd004301	-0.0313139
148	0xbd0996f8	-0.03359124
149	0x3dc586d8	0.0964486
150	0x3dfa74ea	0.12229331
151	0x3c32ad51	0.01090558
152	0xbdde1701	-0.108442314
153	0xbd6ad2a5	-0.057329793
154	0xbdc4c1c9	-0.09607274
155	0xbdbca145	-0.09210447
156	0xbb2287f5	-0.0024800275
157	0xbc0a33b2	-0.008435177
158	0x3decbf8f	0.115599744
159	0x3daa974e	0.0832964
160	0x3defb8d9	0.11705179
161	0xbdfa1ef0	-0.12212932
162	0x3c1f157a	0.00970971
163	0x3e08c1fe	0.13355252
164	0x3e2bc12b	0.16772906
165	0x3c777419	0.015103363
166	0xbd47d26b	-0.048784655
167	0xbdb3ca5a	-0.0877883
168	0xbe16231c	-0.1466183
169	0xbdbe9920	-0.0930655
170	0xbdb0fed9	-0.08642358
171	0x3d0cb19b	0.034349065
172	0xbd270753	-0.04077847
173	0xbd3eb213	-0.046556544
174	0x3daacc10	0.08339703
175	0x3db3a6ec	0.08772072
176	0xbd05557f	-0.03255224
177	0x3dec9ffe	0.115539536
178	0x3c84904d	0.01618209
179	0x3e0a1f69	0.13488545
180	0x3dc2f084	0.09518531
181	0x3d012452	0.03152878
182	0xbdf583a5	-0.11988
183	0xbd671c8c	-0.05642371
184	0xbd3bb29a	-0.045824625
185	0x3dccec6d	0.10006032
186	0x3d806830	0.06269872
187	0x3d063dc8	0.032773763
188	0xbde8b6de	-0.11363004
189	0x3e1aeb04	0.15128714
190	0x3e286011	0.16442896
191	0x3dd8be84	0.10583213
192	0x3ccabbb6	0.02474771
193	0xbd5c7549	-0.05382279
194	0x3dcc8288	0.09985834
195	0xbdd0002e	-0.10156284
196	0x3e0988d0	0.13431096
197	0xbe218062	-0.1577163
198	0xbd85faa0	-0.065419436
199	0x3e2470e3	0.16058688
200	0x3d97bdb0	0.07409227
201	0x3e30d3dd	0.1726832
202	0xbd8c6010	-0.0685426
203	0x3d633346	0.05546882
204	0x3e0cc144	0.137456
205	0x3c95926c	0.018258296
206	0x3e220abf	0.15824412
207	0x3ca70cb6	0.020391803
208	0xbd1207e8	-0.03565207
209	0x3d80b1b3	0.062838934
210	0x3c08d59a	0.008351708
211	0xbde621be	-0.112369046
212	0xbe0addc7	-0.13561164
213	0xbe37606d	-0.17907877
214	0x3df0e051	0.11761535
215	0x3d9ceb2f	0.07662045
216	0xbd54b8be	-0.051933996
217	0xbb063999	-0.0020481108
218	0x3d70fed6	0.05883678
219	0xbdfcb6b3	-0.123395346
220	0xbe115772	-0.14193514
221	0xbdf439f6	-0.11925118
222	0xbe164785	-0.1467572
223	0x3c9540ee	0.018219437
224	0x3d04f6c3	0.032461893
225	0x3e1bca99	0.15214004
226	0x3e272c55	0.16325505
227	0xbd889a2b	-0.0667003
228	0x3e1fac32	0.15593031
229	0x3cfb019a	0.030640412
230	0xbe0ed1ee	-0.1394727
231	0x3d14acf1	0.036297742
232	0x3d94c499	0.072640605
233	0xbdbd4614	-0.09241882
234	0x3d81e78c	0.06342992
235	0x3d6fda66	0.05855789
236	0xbe036bc7	-0.12834083
237	0x3d31e405	0.043430347
238	0xbdb86eb3	-0.09005489
239	0xbd86f9c4	-0.06590608
240	0xbddebaba	-0.10875459
241	0x3dfe58a7	0.12419253
242	0x3e16643b	0.14686672
243	0xbdc716fb	-0.0972118
244	0xbde675df	-0.11252951
245	0x3e128905	0.14310081
246	0xbe110701	-0.14162828
247	0x3cddfa31	0.02709684
248	0xbe0219a4	-0.12705094
249	0x3d4baabe	0.04972338
250	0x3d484ee7	0.048903372
251	0x3e46d12a	0.19415727
252	0x3dea2b01	0.114339836
253	0x3e0ee447	0.13954268
254	0x3dadc5e1	0.08485008
255	0xbe1a4595	-0.15065606

arith.constant2 f4 [32, 1536]
0	0xbb9c60a9	-0.004772265
1	0x3c7f8122	0.0155947525
2	0x3ad3e588	0.0016166428
3	0x3c92a891	0.017902644
4	0xb9243a38	-0.00015661947
5	0x3ca46597	0.020067973
6	0xbb737996	-0.0037151328
7	0x3c368778	0.011140697
8	0x3ce09710	0.027415782
9	0xbc9e65ba	-0.019335616
10	0xbcaaf0e7	-0.020866824
11	0xbcf20570	-0.029543608
12	0x3cc77381	0.024347069
13	0xbc4615f4	-0.012090195
14	0xbc4f9293	-0.012669223
15	0x3a908647	0.0011026346
16	0x3c9739e5	0.018460223
17	0xbd128c4c	-0.03577833
18	0xbcfa4076	-0.030548315
19	0x3c6e0fee	0.014530165
20	0x3c9961cf	0.018723397
21	0xbc275bb6	-0.010214737
22	0xbc2a7682	-0.010404231
23	0xbc90f0e0	-0.017692983
24	0xbcc89c83	-0.024488693
25	0xbad7aaf2	-0.0016454144
26	0x3c6daccb	0.014506529
27	0xbaa208fb	-0.0012362296
28	0x3c17b402	0.009259226
29	0xbcac1026	-0.021003794
30	0xba9fcea1	-0.0012192318
31	0x3c9c5447	0.019083155
32	0x3aeecaa8	0.0018218355
33	0xbca52a48	-0.020161763
34	0x3c16148d	0.009160173
35	0xbcbfe7a7	-0.02342589
36	0xbc9bd5e1	-0.019022884
37	0xb9405610	-0.00018342608
38	0x3cb5010b	0.022095224
39	0xbc2f7fe6	-0.010711646
40	0xbc378d1c	-0.011203077
41	0x3ca489f3	0.02008531
42	0xbbfcc699	-0.0077141044
43	0xbc888318	-0.016664073
44	0x3c6e6ef0	0.014552817
45	0x3c77dad5	0.015127857
46	0x3c2b7a41	0.010466159
47	0x3c26fd3a	0.01019221
48	0x3c8ba7a1	0.017047705
49	0xbaf49167	-0.0018659056
50	0xbc1742fa	-0.009232277
51	0xbc807be0	-0.015684068
52	0x3b77c54f	0.0037806814
53	0xbce98981	-0.02850795
54	0xbc24896c	-0.01004253
55	0x3b382371	0.0028097297
56	0xbc7752f1	-0.015095458
57	0xbb789983	-0.0037933297
58	0xbc2aa6ce	-0.010415746
59	0xba580163	-0.0008239953
60	0x3cda788f	0.026668815
61	0x3ca110bb	0.019661298
62	0x3ceafe50	0.028685719
63	0x3c61b896	0.013776919
64	0x3a917020	0.0011096038
65	0x3c48849c	0.012238648
66	0xbcd03dba	-0.025420059
67	0x3bdae3e6	0.0066799996
68	0xbc815791	-0.015788825
69	0x3c9b5012	0.018959079
70	0x3bb7b25e	0.00560598
71	0xbc1e21a5	-0.009651576
72	0xbca04c2b	-0.01956757
73	0x3bce274f	0.006291307
74	0xbcba03b7	-0.02270685
75	0x3c76b2f7	0.015057317
76	0xbcad69cc	-0.021168612
77	0xbcaaa0b3	-0.02082858
78	0xbca228cb	-0.019794842
79	0xbb9e4e6b	-0.0048311255
80	0xbc7bf383	-0.015377882
81	0x3cd14831	0.025547119
82	0x3c9f549f	0.01944953
83	0x3ba2e40b	0.0049710325
84	0xbc84f9c7	-0.016232384
85	0xba9e6406	-0.0012084253
86	0xbc1da5fb	-0.009622092
87	0xbc0207e3	-0.007936451
88	0xbc811afb	-0.015759936
89	0x3c0ae0eb	0.008476476
90	0xbcca5ced	-0.024702514
91	0xba8b2043	-0.0010614473
92	0x3be3481b	0.006936086
93	0xbc9901f6	-0.018677693
94	0x3cc332c4	0.023827918
95	0x3c8b8ef3	0.017035937
96	0xbca0a246	-0.019608628
97	0x3c933fc0	0.017974734
98	0xbca2d4d0	-0.019876868
99	0x3c5b9bef	0.013403877
100	0xbc8aa8bb	-0.01692616
101	0xbb93ceaf	-0.0045107226
102	0xbc539867	-0.0129147535
103	0xbc083972	-0.008314477
104	0x3b381212	0.0028086943
105	0xbbbaef57	-0.005704801
106	0x3c8d6b83	0.01726318
107	0xbcc48a29	-0.023991661
108	0x3cb7ce8f	0.022437362
109	0x3bcf9951	0.0063354154
110	0x3cf24723	0.029574936
111	0xbc863597	-0.016382976
112	0x3a19ca2a	0.00058666116
113	0xbc909d89	-0.017653244
114	0xbc31a92c	-0.010843556
115	0xbbdaf320	-0.006681815
116	0x3b9d6516	0.00480331
117	0xbcb6d81a	-0.022319842
118	0x3a9a05de	0.0011751016
119	0xbc077f35	-0.008270075
120	0x3b9733d7	0.004614334
121	0x3bf6a3ad	0.007526836
122	0x3b1a6e6f	0.0023564359
123	0x3c0273a4	0.007962141
124	0x3c437067	0.011928654
125	0xbbc7e4b2	-0.0061002607
126	0xbd03aa07	-0.032144573
127	0x3b9a86a2	0.0047157565
128	0x3c8d615b	0.017258337
129	0xbbcc5975	-0.00623625
130	0x3bbdfc29	0.005797882
131	0x3c04f209	0.008114346
132	0x3c830d31	0.015997501
133	0x3bad6958	0.005292099
134	0x3d0824ee	0.033238344
135	0xbc1f2aff	-0.009714841
136	0x3c0af32b	0.008480827
137	0x3a4eefbd	0.0007894
138	0x3cbdfa04	0.023190506
139	0x3bc426d8	0.005986076
140	0xbc9b4be4	-0.018957086
141	0xbb7b2600	-0.003832221
142	0xbc48e950	-0.012262657
143	0xbcb79666	-0.022410583
144	0x3d2a80db	0.041626792
145	0xbd045daf	-0.032315906
146	0x3c525898	0.012838505
147	0xbc3c2648	-0.011483736
148	0x3cc4a301	0.024003508
149	0x3b4dfb05	0.0031430137
150	0xb85d76ad	-5.280103e-05
151	0x3c14018c	0.009033572
152	0xbc4f639d	-0.012658027
153	0x3c177743	0.009244743
154	0xbc908f7c	-0.017646544
155	0x3af01695	0.0018317277
156	0x3b5d50a3	0.0033769987
157	0x3ba092ee	0.004900328
158	0x3c8521dc	0.016251497
159	0x3c1ecb73	0.009692061
160	0x3cc34cad	0.023840273
161	0xbcd46034	-0.02592478
162	0xbc2259c8	-0.009909101
163	0x3c1aa8c6	0.009439653
164	0x3c762cf9	0.015025371
165	0x3c831ac2	0.01600397
166	0xbc8b0349	-0.01696934
167	0xbb0fe8ae	-0.0021958756
168	0x3b5a8a67	0.0033346654
169	0xbc54a6b1	-0.012979195
170	0xbbfa551b	-0.00763954
171	0x3b2314b0	0.0024884157
172	0xbce8c5d1	-0.028414639
173	0xbc22a735	-0.009927561
174	0x3bd6c531	0.0065542688
175	0x3c8e4032	0.017364595
176	0x3c3bc52b	0.011460583
177	0xbc444c6b	-0.01198111
178	0xbb189c27	-0.0023286433
179	0xbc44f65b	-0.012021626
180	0xbbb57450	-0.005537547
181	0xbc782f91	-0.015148059
182	0x3c19c818	0.009386085
183	0xbc9ad2be	-0.018899318
184	0xbc51133f	-0.012760936
185	0xbc05593d	-0.008138952
186	0xbc7a603f	-0.015281736
187	0x3c3d70cb	0.0115625365
188	0x3c61b9cf	0.01377721
189	0xbb2ca9f1	-0.002634641
190	0x3cb9d6a8	0.022685364
191	0xbc81d630	-0.015849203
192	0xbc144b76	-0.009051194
193	0xbc6d2107	-0.014473206
194	0x3c2425d1	0.010018782
195	0xbc1f38fb	-0.009718175
196	0xbc744077	-0.014907948
197	0x3cae676f	0.021289555
198	0x3ca938b4	0.020656921
199	0x3d0caaa3	0.03434242
200	0xbc6545d1	-0.013993696
201	0x3cafb9e9	0.021450954
202	0xbc778e70	-0.015109643
203	0xbb9b01e5	-0.0047304505
204	0xbb9483bf	-0.004532307
205	0x3b65c5a0	0.003506042
206	0x39deea9b	0.00042517934
207	0xbb884911	-0.004159101
208	0xbbf04cab	-0.0073333583
209	0xba1686b3	-0.00057421176
210	0x3b85b8c4	0.0040808637
211	0x3c5d1dc2	0.013495864
212	0x3c83add8	0.016074106
213	0xbc9b0d7b	-0.018927326
214	0xbca78171	-0.020447465
215	0xbc834546	-0.016024243
216	0x3bb330ad	0.005468449
217	0x3cc33a40	0.023831487
218	0xbc441cb4	-0.011969734
219	0xbc6c59bc	-0.014425691
220	0xbc313c4a	-0.010817597
221	0xbc884143	-0.016632682
222	0xbcea4cff	-0.028601168
223	0xbc105a7b	-0.008810635
224	0x3c18c7be	0.009324966
225	0x3bfcffd2	0.007720926
226	0x3ba874cc	0.0051408764
227	0xbcbc5fe7	-0.022994949
228	0xb9ba1f55	-0.0003550003
229	0x3a11d648	0.00055632414
230	0xb885585a	-6.358391e-05
231	0x3c554832	0.013017701
232	0xbcd5bc90	-0.02609089
233	0xbc215b84	-0.009848479
234	0x3b0f472a	0.0021862485
235	0xbc94c7b9	-0.018161641
236	0x3a82ea09	0.0009987961
237	0x3c4c6081	0.01247418
238	0x3b9ed1ab	0.0048467717
239	0x3cb31e7e	0.021865126
240	0x3b549488	0.0032437164
241	0x3b6a7e01	0.003578067
242	0xbc3bf3ec	-0.01147173
243	0xbb83d060	-0.004022643
244	0xbb1c0ee9	-0.0023812598
245	0xb98fb1a1	-0.0002740743
246	0xbcce34b4	-0.025171615
247	0x3b709cd3	0.0036714568
248	0xb9c60a86	-0.00037773344
249	0xbbfa1cfe	-0.0076328507
250	0x3bc1c97f	0.005913913
251	0x3b321bb6	0.0027177162
252	0x3d0bfa91	0.034174506
253	0x3cf7e3fe	0.030260082
254	0x3c91334e	0.01772466
255	0xbc33de45	-0.010978286

model_8/tf.__operators__.add/AddV2/y f4 [32]
0	0xbc47196c	-0.012152057
1	0xbc9ab66a	-0.01888581
2	0x3c41f87b	0.0118390275
3	0x3bb909bd	0.005646913
4	0x3bf6e689	0.007534806
5	0xbcd89656	-0.026438873
6	0xbbf3691f	-0.007428303
7	0x3cf05a5e	0.029339965
8	0xbc1b5018	-0.009479545
9	0x3ba73b33	0.0051034926
10	0xbc45426c	-0.012039762
11	0xbc60610a	-0.013695011
12	0xbc85e40a	-0.016344089
13	0xbcdbf2a5	-0.0268491
14	0xbc8d7a87	-0.01727034
15	0xba53feaf	-0.0008086962
16	0xbcc17906	-0.023617279
17	0x392985db	0.00016166961
18	0xbc287c3e	-0.010283528
19	0x3c36e3f6	0.011162749
20	0xbc2a8843	-0.010408464
21	0x3b308813	0.0026936575
22	0x3b038f98	0.0020074602
23	0xbcbfc331	-0.023408504
24	0xbac099be	-0.0014694256
25	0xbcb49314	-0.022042789
26	0x3ca0b7b5	0.019618848
27	0x3b88645d	0.004162355
28	0xbc6a7718	-0.014310621
29	0xbc38db5d	-0.011282769
30	0x3ca56bf3	0.020193076
31	0xbc03711c	-0.008022573

model_8/tf.__operators__.add_1/AddV2/y f4 [32]
0	0xbd0699e4	-0.032861605
1	0xbe17619f	-0.14783333
2	0xbde9e543	-0.11420681
3	0x3d87f4d2	0.06638493
4	0xbdb490a8	-0.088166535
5	0x3b12dce9	0.0022409505
6	0xbe25f1d0	-0.16205525
7	0xbe1adbbd	-0.15122886
8	0x3dc658e8	0.09684926
9	0xbd412203	-0.047151577
10	0xbdf0b614	-0.11753479
11	0xbd6369a7	-0.05552068
12	0xbe21842a	-0.15773073
13	0xbe2c12e0	-0.16804075
14	0x3c1790ce	0.009250833
15	0xbd5c17fb	-0.053733807
16	0xbe12b609	-0.14327253
17	0x3e0a2faa	0.13494745
18	0xbe24a69e	-0.16079184
19	0xbdca3ce6	-0.09874897
20	0xbdaf7e76	-0.085690424
21	0x3d1be92f	0.038064178
22	0xbdf193c3	-0.117957614
23	0x3dfef2ca	0.12448652
24	0xbdf13130	-0.1177696
25	0xbdee494d	-0.11635075
26	0x3c64edab	0.01397268
27	0xbe12c45a	-0.14332715
28	0xbd807361	-0.06272007
29	0x3ce940e6	0.028473329
30	0x3deb0dad	0.11477218
31	0x3df076f4	0.117414385

model_8/tf.math.add_2/Add/y f4 [1, 32]
0	0x3c7aa866	0.015298938
1	0x3b32ba5a	0.0027271719
2	0xbba0f1e6	-0.004911649
3	0x3c85a1f6	0.01631258
4	0xbc2ecf32	-0.010669516
5	0x3d012023	0.03152479
6	0xbc38ae48	-0.011272021
7	0x3cd26ba8	0.0256861
8	0xbc3a91aa	-0.011387268
9	0x3c5d1ddc	0.013495889
10	0x3d074349	0.033023153
11	0xbc5e7ac2	-0.013579072
12	0x3cf88236	0.030335527
13	0xba833d19	-0.0010012715
14	0xbb16f3d6	-0.002303352
15	0x3bb0b9ff	0.005393266
16	0x3c9f5f08	0.019454494
17	0xbbf1ae88	-0.007375542
18	0xbb0d6878	-0.002157716
19	0xbc384848	-0.011247702
20	0x3ce52755	0.027972857
21	0x3c289b11	0.010290877
22	0x3bf54020	0.007484451
23	0x3c2036c2	0.00977868
24	0x3c119e39	0.008887821
25	0xbb920b82	-0.0044569382
26	0x3bfdec99	0.007749152
27	0x3b0ee3c7	0.0021803246
28	0x3b9dca49	0.004815374
29	0x3b94a954	0.004536787
30	0xbc3f925b	-0.011692609
31	0x3aefdb7c	0.0018299664

model_8/tf.math.add_5/Add/y f4 [1, 32]
0	0x3da7b939	0.08189625
1	0x3c9e7bb2	0.019346092
2	0xbc16c1b3	-0.009201455
3	0x3c5e95f4	0.013585556
4	0xbca816c7	-0.020518674
5	0x3d06a2ed	0.032870222
6	0x3dedf6e4	0.11619356
7	0x3c9c51bc	0.019081943
8	0x3c77477f	0.01509273
9	0x3ce57d8d	0.028013969
10	0x3e9215db	0.285323
11	0x3d48e421	0.049045686
12	0x3ea32b8f	0.3186917
13	0xbb931a3a	-0.0044892104
14	0x3db0c964	0.08632162
15	0x3cbb4e3e	0.022864457
16	0x3b2c09c2	0.0026250933
17	0x3e9a42c1	0.30129054
18	0x3e7ca66a	0.24672857
19	0xbc31c0ae	-0.010849161
20	0x3d50a546	0.050938867
21	0x3cc1e8fd	0.023670668
22	0x3b96f88e	0.0046072667
23	0x3e77247d	0.24135013
24	0x3e802065	0.25024715
25	0x3e8cfb53	0.27535495
26	0x3e7843bd	0.2424459
27	0xbd4a15fd	-0.049337376
28	0xbb166699	-0.0022949337
29	0xbc328f9d	-0.010898498
30	0x3d06d0a7	0.03291383
31	0x3cfb4b07	0.030675424

model_8/tf.math.multiply_10/Mul/y f4 [1, 32]
0	0x3f81238b	1.0088972
1	0x3f7c9b36	0.98674333
2	0x3f7e76ad	0.99399835
3	0x3f7dfa41	0.9920998
4	0x3f7f7485	0.9978717
5	0x3f80c93f	1.0061415
6	0x3f7f3d89	0.9970327
7	0x3f8be283	1.0928501
8	0x3f7e74f9	0.99397236
9	0x3f83cdb8	1.0297155
10	0x3f81553d	1.0104138
11	0x3f7d0f25	0.98851234
12	0x3f7fc213	0.9990551
13	0x3f80050a	1.0001538
14	0x3f80a067	1.0048951
15	0x3f8045a6	1.0021255
16	0x3f79f440	0.9763832
17	0x3f7e217d	0.9926985
18	0x3f804097	1.0019711
19	0x3f7f780c	0.9979255
20	0x3f81e0ef	1.0146769
21	0x3f8005f1	1.0001813
22	0x3f79d7c5	0.97594863
23	0x3f7e9ab0	0.99454784
24	0x3f83b183	1.0288547
25	0x3f7d2314	0.9888165
26	0x3f7f8fa8	0.9982858
27	0x3f80e5ca	1.0070126
28	0x3f80db47	1.0066918
29	0x3f7822b1	0.96927935
30	0x3f7f7ab0	0.9979658
31	0x3f7f2d98	0.99678946

model_8/tf.math.multiply_22/Mul/y f4 [1, 32]
0	0x3f8dde07	1.1083382
1	0x3f815ef0	1.0107098
2	0x3f7f6615	0.9976514
3	0x3f825fd4	1.0185494
4	0x3f7cf5ca	0.98812544
5	0x3f84af9b	1.036609
6	0x3f8d7024	1.1049848
7	0x3f8128b3	1.0090545
8	0x3f835dfa	1.0263054
9	0x3f84ca1a	1.0374177
10	0x3fa9a72c	1.3254142
11	0x3f8c9f96	1.0986202
12	0x3fb2c0fd	1.3965145
13	0x3f7f2ac7	0.9967465
14	0x3f90587c	1.1277003
15	0x3f8b2dd1	1.0873357
16	0x3f872358	1.0557661
17	0x3fae54bd	1.361961
18	0x3f9f94d6	1.2467296
19	0x3f7e91b3	0.9944107
20	0x3f8cc650	1.099802
21	0x3f8330d2	1.0249274
22	0x3f816653	1.0109352
23	0x3f9bdc78	1.2176657
24	0x3f9eae82	1.2397006
25	0x3fa6918e	1.301317
26	0x3f9ce314	1.2256799
27	0x3f75a156	0.95949304
28	0x3f800f5b	1.0004686
29	0x3f7bbcf5	0.983352
30	0x3f85d775	1.0456377
31	0x3f876355	1.0577189
